{"modelTopology": {"training_config": {"metrics": ["accuracy"], "loss": "mean_squared_error", "optimizer_config": {"class_name": "SGD", "config": {"nesterov": false, "lr": 1.0, "momentum": 0.0, "decay": 0.0}}, "sample_weight_mode": null, "loss_weights": null}, "keras_version": "2.2.2", "model_config": {"class_name": "Sequential", "config": [{"class_name": "Dense", "config": {"kernel_initializer": {"class_name": "VarianceScaling", "config": {"distribution": "uniform", "scale": 1.0, "seed": null, "mode": "fan_avg"}}, "name": "inputlayer", "kernel_constraint": null, "bias_regularizer": null, "bias_constraint": null, "dtype": "float32", "activation": "sigmoid", "trainable": true, "kernel_regularizer": null, "bias_initializer": {"class_name": "Zeros", "config": {}}, "units": 5, "batch_input_shape": [null, 2], "use_bias": true, "activity_regularizer": null}}, {"class_name": "Dense", "config": {"kernel_initializer": {"class_name": "VarianceScaling", "config": {"distribution": "uniform", "scale": 1.0, "seed": null, "mode": "fan_avg"}}, "name": "outputlayer", "kernel_constraint": null, "bias_regularizer": null, "bias_constraint": null, "activation": "sigmoid", "trainable": true, "kernel_regularizer": null, "bias_initializer": {"class_name": "Zeros", "config": {}}, "units": 1, "use_bias": true, "activity_regularizer": null}}]}, "backend": "tensorflow"}, "weightsManifest": [{"paths": ["group1-shard1of1"], "weights": [{"dtype": "float32", "shape": [2, 5], "name": "inputlayer/kernel"}, {"dtype": "float32", "shape": [5], "name": "inputlayer/bias"}, {"dtype": "float32", "shape": [5, 1], "name": "outputlayer/kernel"}, {"dtype": "float32", "shape": [1], "name": "outputlayer/bias"}]}]}